…
beam_size 1 --max_output_len 4

INFO - 04/01/26 21:56:57 - 0:00:00 - vocabulary: 36 words
INFO - 04/01/26 21:56:57 - 0:00:00 - words: {'<eos>': 0, '<pad>': 1, '<mask>': 2, '+': 3, '0': 4, '1': 5, '10': 6, '11': 7, '12': 8, '13': 9, '14': 10, '15': 11, '16': 12, '17': 13, '18': 14, '19': 15, '2': 16, '20': 17, '21': 18, '22': 19, '23': 20, '24': 21, '25': 22, '26': 23, '27': 24, '28': 25, '29': 26, '3': 27, '30': 28, '31': 29, '4': 30, '5': 31, '6': 32, '7': 33, '8': 34, '9': 35}
DEBUG - 04/01/26 21:56:57 - 0:00:00 - TransformerModel(
                                        (position_embeddings): Embedding(4096, 256)
                                        (embeddings): Embedding(36, 256, padding_idx=1)
                                        (layer_norm_emb): LayerNorm((256,), eps=1e-12, elementwise_affine=True)
                                        (layers): ModuleList(
                                          (0): TransformerLayer(
                                            (self_attention): MultiHeadAttention(
                                              (q_lin): Linear(in_features=256, out_features=256, bias=True)
                                              (k_lin): Linear(in_features=256, out_features=256, bias=True)
                                              (v_lin): Linear(in_features=256, out_features=256, bias=True)
                                              (out_lin): Linear(in_features=256, out_features=256, bias=True)
                                            )
                                            (layer_norm1): LayerNorm((256,), eps=1e-12, elementwise_affine=True)
                                            (ffn): TransformerFFN(
                                              (midlin): ModuleList()
                                              (lin1): Linear(in_features=256, out_features=1024, bias=True)
                                              (lin2): Linear(in_features=1024, out_features=256, bias=True)
                                            )
                                            (layer_norm2): LayerNorm((256,), eps=1e-12, elementwise_affine=True)
                                          )
                                        )
                                      ): TransformerModel(
                                        (position_embeddings): Embedding(4096, 256)
                                        (embeddings): Embedding(36, 256, padding_idx=1)
                                        (layer_norm_emb): LayerNorm((256,), eps=1e-12, elementwise_affine=True)
                                        (layers): ModuleList(
                                          (0): TransformerLayer(
                                            (self_attention): MultiHeadAttention(
                                              (q_lin): Linear(in_features=256, out_features=256, bias=True)
                                              (k_lin): Linear(in_features=256, out_features=256, bias=True)
                                              (v_lin): Linear(in_features=256, out_features=256, bias=True)
                                              (out_lin): Linear(in_features=256, out_features=256, bias=True)
                                            )
                                            (layer_norm1): LayerNorm((256,), eps=1e-12, elementwise_affine=True)
                                            (ffn): TransformerFFN(
                                              (midlin): ModuleList()
                                              (lin1): Linear(in_features=256, out_features=1024, bias=True)
                                              (lin2): Linear(in_features=1024, out_features=256, bias=True)
                                            )
                                            (layer_norm2): LayerNorm((256,), eps=1e-12, elementwise_affine=True)
                                          )
                                        )
                                      )
DEBUG - 04/01/26 21:56:57 - 0:00:00 - TransformerModel(
                                        (position_embeddings): Embedding(4096, 256)
                                        (embeddings): Embedding(36, 256, padding_idx=1)
                                        (layer_norm_emb): LayerNorm((256,), eps=1e-12, elementwise_affine=True)
                                        (layers): ModuleList(
                                          (0): TransformerLayer(
                                            (self_attention): MultiHeadAttention(
                                              (q_lin): Linear(in_features=256, out_features=256, bias=True)
                                              (k_lin): Linear(in_features=256, out_features=256, bias=True)
                                              (v_lin): Linear(in_features=256, out_features=256, bias=True)
                                              (out_lin): Linear(in_features=256, out_features=256, bias=True)
                                            )
                                            (layer_norm1): LayerNorm((256,), eps=1e-12, elementwise_affine=True)
                                            (layer_norm15): LayerNorm((256,), eps=1e-12, elementwise_affine=True)
                                            (cross_attention): MultiHeadAttention(
                                              (q_lin): Linear(in_features=256, out_features=256, bias=True)
                                              (k_lin): Linear(in_features=256, out_features=256, bias=True)
                                              (v_lin): Linear(in_features=256, out_features=256, bias=True)
                                              (out_lin): Linear(in_features=256, out_features=256, bias=True)
                                            )
                                            (ffn): TransformerFFN(
                                              (midlin): ModuleList()
                                              (lin1): Linear(in_features=256, out_features=1024, bias=True)
                                              (lin2): Linear(in_features=1024, out_features=256, bias=True)
                                            )
                                            (layer_norm2): LayerNorm((256,), eps=1e-12, elementwise_affine=True)
                                            (gate): Gate(
                                              (gate1): Linear(in_features=256, out_features=1024, bias=True)
                                              (gate2): Linear(in_features=1024, out_features=256, bias=True)
                                            )
                                          )
                                          (1): TransformerLayer(
                                            (self_attention): MultiHeadAttention(
                                              (q_lin): Linear(in_features=256, out_features=256, bias=True)
                                              (k_lin): Linear(in_features=256, out_features=256, bias=True)
                                              (v_lin): Linear(in_features=256, out_features=256, bias=True)
                                              (out_lin): Linear(in_features=256, out_features=256, bias=True)
                                            )
                                            (layer_norm1): LayerNorm((256,), eps=1e-12, elementwise_affine=True)
                                            (layer_norm15): LayerNorm((256,), eps=1e-12, elementwise_affine=True)
                                            (cross_attention): MultiHeadAttention(
                                              (q_lin): Linear(in_features=256, out_features=256, bias=True)
                                              (k_lin): Linear(in_features=256, out_features=256, bias=True)
                                              (v_lin): Linear(in_features=256, out_features=256, bias=True)
                                              (out_lin): Linear(in_features=256, out_features=256, bias=True)
                                            )
                                            (ffn): TransformerFFN(
                                              (midlin): ModuleList()
                                              (lin1): Linear(in_features=256, out_features=1024, bias=True)
                                              (lin2): Linear(in_features=1024, out_features=256, bias=True)
                                            )
                                            (layer_norm2): LayerNorm((256,), eps=1e-12, elementwise_affine=True)
                                          )
                                        )
                                        (proj): Linear(in_features=256, out_features=36, bias=True)
                                      ): TransformerModel(
                                        (position_embeddings): Embedding(4096, 256)
                                        (embeddings): Embedding(36, 256, padding_idx=1)
                                        (layer_norm_emb): LayerNorm((256,), eps=1e-12, elementwise_affine=True)
                                        (layers): ModuleList(
                                          (0): TransformerLayer(
                                            (self_attention): MultiHeadAttention(
                                              (q_lin): Linear(in_features=256, out_features=256, bias=True)
                                              (k_lin): Linear(in_features=256, out_features=256, bias=True)
                                              (v_lin): Linear(in_features=256, out_features=256, bias=True)
                                              (out_lin): Linear(in_features=256, out_features=256, bias=True)
                                            )
                                            (layer_norm1): LayerNorm((256,), eps=1e-12, elementwise_affine=True)
                                            (layer_norm15): LayerNorm((256,), eps=1e-12, elementwise_affine=True)
                                            (cross_attention): MultiHeadAttention(
                                              (q_lin): Linear(in_features=256, out_features=256, bias=True)
                                              (k_lin): Linear(in_features=256, out_features=256, bias=True)
                                              (v_lin): Linear(in_features=256, out_features=256, bias=True)
                                              (out_lin): Linear(in_features=256, out_features=256, bias=True)
                                            )
                                            (ffn): TransformerFFN(
                                              (midlin): ModuleList()
                                              (lin1): Linear(in_features=256, out_features=1024, bias=True)
                                              (lin2): Linear(in_features=1024, out_features=256, bias=True)
                                            )
                                            (layer_norm2): LayerNorm((256,), eps=1e-12, elementwise_affine=True)
                                            (gate): Gate(
                                              (gate1): Linear(in_features=256, out_features=1024, bias=True)
                                              (gate2): Linear(in_features=1024, out_features=256, bias=True)
                                            )
                                          )
                                          (1): TransformerLayer(
                                            (self_attention): MultiHeadAttention(
                                              (q_lin): Linear(in_features=256, out_features=256, bias=True)
                                              (k_lin): Linear(in_features=256, out_features=256, bias=True)
                                              (v_lin): Linear(in_features=256, out_features=256, bias=True)
                                              (out_lin): Linear(in_features=256, out_features=256, bias=True)
                                            )
                                            (layer_norm1): LayerNorm((256,), eps=1e-12, elementwise_affine=True)
                                            (layer_norm15): LayerNorm((256,), eps=1e-12, elementwise_affine=True)
                                            (cross_attention): MultiHeadAttention(
                                              (q_lin): Linear(in_features=256, out_features=256, bias=True)
                                              (k_lin): Linear(in_features=256, out_features=256, bias=True)
                                              (v_lin): Linear(in_features=256, out_features=256, bias=True)
                                              (out_lin): Linear(in_features=256, out_features=256, bias=True)
                                            )
                                            (ffn): TransformerFFN(
                                              (midlin): ModuleList()
                                              (lin1): Linear(in_features=256, out_features=1024, bias=True)
                                              (lin2): Linear(in_features=1024, out_features=256, bias=True)
                                            )
                                            (layer_norm2): LayerNorm((256,), eps=1e-12, elementwise_affine=True)
                                          )
                                        )
                                        (proj): Linear(in_features=256, out_features=36, bias=True)
                                      )
INFO - 04/01/26 21:56:57 - 0:00:00 - Number of parameters (encoder): 1848064
INFO - 04/01/26 21:56:57 - 0:00:00 - Number of parameters (decoder): 3690788
INFO - 04/01/26 21:56:58 - 0:00:00 - Loading data from /home/yu_mcc/PQC_salsa/runs/n50_q251_h3/ab_ternary/train.prefix ... seekpos 0, basepos 0
INFO - 04/01/26 21:56:58 - 0:00:01 - Loaded 60300 equations from the disk. seekpos 0, nextpos 60300
…
